The_King_of_Fighters_XV/model/number_recognizer.pth (torch, 233103 bytes, 8 tensors)

conv1.0.weight f4 [16, 3, 3, 3]
000000 74 aa bd bc 13 da d8 3d 9a e5 86 3d cb b5 05 3e
       -0.023152567 0.10588469 0.06586762 0.1305763
000010 fb cc 23 3e b6 5b 35 3e dc f4 05 bc ae 3f ce 3d
       0.15996163 0.17710766 -0.008176055 0.1007074
000020 25 5d 48 3d c9 b6 be 3d 32 e6 8d bd 7b 89 1d 3e
       0.048916955 0.09312207 -0.06928672 0.15384476
000030 f0 28 0c 3d fb e8 30 be 59 5f 3d 3e 0d 9c 38 be
       0.03421873 -0.17276375 0.18493403 -0.18028279
000040 b9 8a a0 3d 87 71 0e 3d 03 02 7b 3c 38 5c 35 be
       0.07838959 0.034776237 0.015320304 -0.1771096
000050 ad 21 42 be ca 25 0b be 1a 18 30 3e d4 0a c4 bd
       -0.18958159 -0.13588634 0.17196694 -0.09572378
000060 1f cb 04 be 26 ac a3 3d 10 bd 30 be 60 22 cf bd
       -0.1296811 0.07991819 -0.17259622 -0.101139784
000070 94 86 91 3c 26 6d 06 3e f2 44 06 3e 35 1f 05 3d
       0.017764367 0.13127574 0.13112238 0.032500464
000080 c5 b5 16 3e 5b 96 1c 3e c8 a9 48 3d ee 49 a8 3d
       0.14717777 0.15291731 0.04899004 0.08217226
000090 ef 8e 10 bd 0b 8b 7a 3b 97 77 f6 3d 05 c6 4d be
       -0.035292562 0.0038229849 0.12034529 -0.2009507
0000a0 63 e7 cb 3d e7 6f e4 3d 95 07 4e be 8c 9e 5e bc
       0.09956243 0.11154156 -0.2012008 -0.013587605
0000b0 97 50 0c 3e 67 44 97 3b 0b 46 b9 3d 5c ed 0c 3e
       0.13702618 0.0046163085 0.09046563 0.1376242
0000c0 00 96 94 3c 0a 61 0a 3e a7 50 0e 3e cf 0b 8e 3c
       0.018137932 0.1351358 0.13897954 0.017339615
0000d0 94 24 0d be 85 42 22 be d0 a9 e5 3d 3f 91 ea bc
       -0.13783485 -0.15845688 0.1121403 -0.028633712
0000e0 3e 71 28 3e 2b 81 59 3c 15 99 17 be e6 76 f1 3d
       0.16449448 0.013275425 -0.1480449 0.11790256
0000f0 3f b0 f8 bc e8 6d 15 3e f6 a6 6e 3d 16 44 93 3d
       -0.030357478 0.14592707 0.058264695 0.07190721
000100 98 06 ad bd 16 ad 14 be c9 45 8d bd 53 71 67 bd
       -0.08448523 -0.14519152 -0.06898076 -0.05650456
000110 13 c0 3c bd bf 68 3a 3e a6 b6 ca bd 33 32 24 3c
       -0.046081614 0.1820402 -0.09898119 0.010021734
000120 6d 35 17 bd c4 0d 2f 3e 1a ae 21 3c 24 7d 21 3e
       -0.036916185 0.17095095 0.009868169 0.15770394
000130 8e 15 0b bd ea 2d 2e 3e fb b1 18 3e d7 32 6e bd
       -0.033956103 0.17009702 0.14911644 -0.058153953
000140 7b 0b fa 3d 0d 7f 3a be 61 76 51 3d 83 39 22 3e
       0.12209221 -0.18212529 0.051138286 0.15842251
000150 ef 83 20 3e b0 14 a1 3d 19 a7 00 be b8 4b 42 bd
       0.15675329 0.07865274 -0.12563743 -0.047435492
000160 bc 59 24 3e 96 3f c5 bd a9 ae 2d 3e bf 87 b1 3b
       0.16049856 -0.09631269 0.16961159 0.0054177935
000170 7d b6 64 bd 9a a5 d5 3c 98 df 0f 3e fa 1b 6f 3d
       -0.055838097 0.026079942 0.14050138 0.05837629
000180 fc ef ce bd e7 0e e7 bb 00 d4 2e bd 69 e3 bd 3d
       -0.10104367 -0.007051337 -0.042682648 0.09271891
000190 38 cd 3e 3d 9f fd a3 3d aa 41 d7 bd 00 d0 33 be
       0.04658243 0.08007359 -0.10510571 -0.17559814
0001a0 4e e1 f4 3d 36 ee 00 be af d9 3e be 76 7c 0f be
       0.11957036 -0.1259087 -0.18637727 -0.14012322
0001b0 2a 35 98 3d 62 74 0c 3d 69 ce fe 3d a5 18 89 3d
       0.07432015 0.03429068 0.12441713 0.06694154
0001c0 c1 d2 26 bc 02 c3 ba 3d 9f c3 b4 bd e4 fd 37 3e
       -0.010182084 0.09119226 -0.08826374 0.17967945
0001d0 30 68 3d bd 1f 2e f4 bc 73 a9 e3 bd 9a e1 91 3b
       -0.04624194 -0.029807149 -0.11116304 0.0044519426
0001e0 c6 8e a2 bd 8a 7d 38 3e ee 46 31 3e a8 22 de 3c
       -0.07937388 0.1801664 0.17312214 0.027116135
0001f0 bd 3b 5d bd 10 11 3d be 85 b4 8e 3d 39 aa d9 3d
       -0.05401205 -0.1846354 0.06968025 0.106281705
000200 ec f3 7f 3d 60 44 75 3d f0 67 8a 3d 56 9b a0 3d
       0.06248848 0.05987966 0.06758106 0.07842128
000210 5f 91 f0 3d 18 51 36 3e 61 22 d8 bc 1a 58 b5 3d
       0.11746477 0.17804372 -0.02638358 0.08854695
000220 a8 38 95 bc 2e b8 98 3d 9b c8 b5 3d 20 61 f5 3b
       -0.018215492 0.074570045 0.08876153 0.007488385
000230 54 e4 65 3d 13 2f 36 bd 85 a4 30 be d7 02 04 3e
       0.056125954 -0.044478487 -0.17250259 0.12891708
000240 d8 7f 3b ba 28 fd 0e be 06 41 ef bd 05 90 fa 3d
       -0.0007152534 -0.13963759 -0.11682324 0.12234501
000250 a9 24 12 be a1 67 e8 bc ab d0 18 3d 0e ee 22 3d
       -0.14271797 -0.028369727 0.037308376 0.039777808
000260 67 2b 1c be 13 39 05 3e a0 c5 04 3d 16 32 3c 3e
       -0.15250932 0.13010053 0.032415032 0.18378481
000270 fe 14 33 be 59 eb 34 bd 0c 0f b0 bd c8 52 21 3e
       -0.17488477 -0.044169758 -0.0859662 0.15754235
000280 cb af bd 3c 6b a4 ce bd 60 07 3b 3e 9f 4c 2d bc
       0.023155114 -0.10089954 0.18264532 -0.01057735
000290 1e ff 2a 3d 6f 66 30 3e 81 9a 32 3e 9d d2 23 3d
       0.041747205 0.17226575 0.17441751 0.03999578
0002a0 64 bb 43 bd 8c 06 46 be 19 f9 b6 bd 4c 0d c4 3d
       -0.04778613 -0.19338435 -0.0893423 0.09572849
0002b0 40 0c ad bd d1 e8 fe bc bf eb 15 3e 4f 11 b1 bc
       -0.08449602 -0.031116875 0.14640711 -0.021614699
0002c0 26 38 58 bd 7d 87 11 3e f6 6c 09 bd eb fd b1 bd
       -0.052787922 0.14211841 -0.03355118 -0.08691009
0002d0 0d ec ad 3d f6 8b b2 3d 13 cc 26 3e 12 20 68 bd
       0.08492289 0.08718102 0.16288786 -0.05667121
0002e0 9b 6c c5 3c 0f f4 45 be ae 8d 71 3d 19 00 a6 3d
       0.024099639 -0.19331382 0.058973007 0.081054874
0002f0 9a 79 2f be 87 de 40 3d d2 f5 34 bd 8b 93 18 3e
       -0.17136231 0.04708722 -0.044179745 0.14900033
000300 8e bd a7 3c fd b5 02 bd 54 32 dc bd c6 a6 9d bc
       0.020476129 -0.03191184 -0.10751787 -0.019244563
000310 56 11 23 be 4f 7c c9 bb b4 70 31 bd 9f f2 90 bd
       -0.15924582 -0.006148852 -0.043320373 -0.07077526
000320 ed cb 98 3b 3e ac 3c be 08 a0 27 3d 56 48 0d be
       0.0046629817 -0.1842508 0.040924102 -0.13797125
000330 f9 1a 38 3e 59 f6 13 3d 27 b5 26 be ac 47 b9 3d
       0.17979039 0.036123607 -0.16280042 0.090468735
000340 31 9a 2b 3e df 29 d2 bd 1e 0d 0a 3e 36 44 11 3e
       0.16758038 -0.102618925 0.13481566 0.14186177
000350 17 cf 2c 3e d5 70 a3 3c df 4a 1b 3d dd a3 fc 3d
       0.16875874 0.019951263 0.0379132 0.12335942
000360 d6 bc de 3c 2d 3b 03 3e 59 49 00 3b d7 e9 be 3d
       0.027189653 0.12815543 0.0019574969 0.09321945
000370 a1 2e 0c 3e ba 19 cc 3d 57 07 03 3c 2c f2 0b be
       0.13689663 0.099658445 0.007997355 -0.136666
000380 fb 66 da 3d 4c c9 27 be 61 7b 03 3b 79 3b db 3c
       0.10664173 -0.16385382 0.0020062553 0.026761757
000390 d9 fc 24 be e6 c7 11 be ea 42 90 bd 6c cf 13 3e
       -0.16112079 -0.14236411 -0.07044013 0.14434594
0003a0 b0 ca 0c bd 29 ee 9b 3d 78 12 31 bd 66 1b a3 3b
       -0.034372985 0.07613785 -0.043230504 0.0049776314
0003b0 39 ce 0e 3c ad 00 ab bd 50 a5 20 3e 3d 75 00 3c
       0.0087161595 -0.08349738 0.15688062 0.007840452
0003c0 01 57 0e 3d a0 d0 eb bc 0b f3 14 3d 9b 24 a7 bd
       0.034750942 -0.028786004 0.036364596 -0.08161279
0003d0 7d 41 09 3c fa 07 c5 bd 8b b4 28 be bd 49 9f 3d
       0.00837743 -0.09620662 -0.16475122 0.07777736
0003e0 c2 75 8a bd 54 4b 7f 3d 3e 2b d6 bd 37 85 fc 3d
       -0.06760742 0.062327698 -0.104574665 0.12330096
0003f0 78 60 29 be 30 58 8e bd 5e 32 06 bd f6 26 b2 3d
       -0.16540706 -0.06950414 -0.032762878 0.086988375

conv1.0.bias f4 [16]
000000 b6 01 91 bd 42 57 bd bd eb de 13 3e 2f a7 34 be
       -0.070804045 -0.09245159 0.14440505 -0.176419
000010 4b 97 e4 bd 08 31 34 3d c5 3c 30 3b 4c 97 47 be
       -0.11161669 0.043992072 0.002689169 -0.19491309
000020 0d 94 11 3c bc 56 5b bd 85 31 e9 bd 19 8a 99 3d
       0.008885396 -0.053549513 -0.11386398 0.07497043
000030 ad 44 51 3c bd c0 3b be 97 4d 9a 3d 62 29 2d be
       0.012772721 -0.18335243 0.0753433 -0.16910318

conv2.0.weight f4 [32, 16, 3, 3]
000000 fa e7 9d bd d9 c9 8c 3a 6d 06 b1 bd 63 84 bb bd
       -0.07710262 0.0010741308 -0.08643804 -0.0915611
000010 33 2c 26 3d 97 c1 92 3d fd d9 e3 3c 82 9c 28 bd
       0.040569495 0.071658306 0.027813906 -0.041164882
000020 39 30 93 3c a3 06 3c bd 20 3c 41 3d 7b 76 9d bd
       0.01796733 -0.045904767 0.04717648 -0.07688614
000030 08 bd e8 bc 95 a2 e1 bc a2 6b ab 3d 94 1d a5 bc
       -0.02841045 -0.027543345 0.08370139 -0.020155706
000040 e1 aa 9a bd 04 d5 70 3d 73 36 40 bd 73 ab 5d bd
       -0.07552124 0.058796898 -0.046926927 -0.054118585
000050 ca 11 0a bd 52 ce 75 bb e4 63 05 3d 06 13 5d 3d
       -0.03370837 -0.003750701 0.032565966 0.05397322
000060 c4 9c 0c 3d d1 7f 33 bd f4 d0 85 bd 76 f8 00 3d
       0.03432919 -0.043823067 -0.06533995 0.03148695
000070 fb 1f d5 bb 90 4d 2c 3d bf 9b 2d bd 34 a5 17 3c
       -0.0065040565 0.042066157 -0.04238486 0.009255696
000080 f8 58 46 bd 3d e5 00 3a ed a9 8f bd 62 42 03 3d
       -0.04842469 0.00049169717 -0.07014833 0.03204573
000090 86 b2 bb 3b b9 6d 0b bd 69 82 24 bc 51 fb 4d 3d
       0.0057280688 -0.034040187 -0.010040858 0.050288502
0000a0 57 d4 01 bd 4e a8 0c bd e5 69 55 3d 74 c9 19 bc
       -0.031696644 -0.034340195 0.052102942 -0.009386409
0000b0 ff 2a 6a bd b1 19 57 bc d6 ec db bc 33 d4 9d bd
       -0.05716991 -0.013128684 -0.02684633 -0.077064894
0000c0 da f1 a0 3d f3 ae c6 3c 8a 1f 57 3d 9d d3 9f 3d
       0.078586295 0.024253344 0.052520312 0.07804034
0000d0 20 f9 2c 3d 4a 74 58 bd cf cd ad 3c d1 70 bf 3c
       0.04222977 -0.052845277 0.021216301 0.023369225
0000e0 10 c9 1f 3c fe 43 5b bd c0 65 98 bd 7d 40 84 3c
       0.009752527 -0.05353164 -0.07441282 0.016144032
0000f0 03 44 06 3a 6b 9f 22 3d e0 e0 15 3d 4d d3 01 bd
       0.0005121829 0.039702814 0.03659141 -0.031695653
000100 cb 02 06 3d 6a 5b fd bc 31 ff 5e bc 2b 84 b3 3b
       0.032717507 -0.030927379 -0.013610647 0.005478402
000110 61 d1 9f bd 6e fc b1 3d 68 15 7b bd a5 c0 49 3d
       -0.07803608 0.08690725 -0.06129971 0.049255986
000120 5b eb 1e bd 8a 0b 20 3d f6 6e 95 bd eb 7e 07 bd
       -0.03879867 0.039073505 -0.07296555 -0.033080023
000130 2d b8 14 3c 6a 1e 30 3d 55 fd ab bc cc 05 51 3d
       0.009077114 0.042997755 -0.020994822 0.05103092
000140 42 14 a2 3d 93 a0 2c bd 83 e0 c0 3b 88 5c 13 bd
       0.0791402 -0.042145323 0.005886139 -0.035976917
000150 1b 68 43 3d 83 40 02 bd f1 f4 de 3d 6f bd 79 bd
       0.047706705 -0.031799804 0.108865626 -0.060971674
000160 18 ff 5c 3d 02 0e 40 bd 86 67 4d bc ad 6b c4 3d
       0.053954214 -0.04688836 -0.012536889 0.0959085
000170 cb 8b 2b bd e2 c4 81 bd 1c 8c ca bc 37 de b2 3d
       -0.041881364 -0.063363805 -0.024725012 0.0873379
000180 b0 7e 20 bd 04 19 15 3d e0 c0 74 3d 40 fa 93 3d
       -0.03918332 0.03640081 0.059754252 0.07225466
000190 27 c7 8f bd 2c 3d 99 3d 35 8e 5e bd 37 b0 c7 bc
       -0.07020407 0.07482371 -0.054334838 -0.024376018
0001a0 ed db f0 3c c6 c0 3e 3c a3 46 4c bd 28 5c 62 bc
       0.029401744 0.01164264 -0.049872052 -0.013815917
0001b0 34 e9 ec 3c c9 82 5d 3d ef 22 bc bc a8 19 a3 bd
       0.028919794 0.054079805 -0.022965876 -0.07963878
0001c0 4b 39 a3 3d d4 52 95 3d 9d e2 0a bd 2e d1 aa bc
       0.07969912 0.07291189 -0.03390752 -0.020851698
0001d0 86 c4 56 3d ae 02 75 3d d5 34 1d 3d 34 25 0e bd
       0.052433513 0.05981701 0.038380463 -0.03470345
0001e0 d4 15 d4 bc e3 bf 6b 3d a9 b9 62 3d d1 84 27 3d
       -0.025889315 0.057556044 0.05535284 0.040898148
0001f0 cc 83 43 3d 29 f5 6f bd 99 b5 a9 bd ef 9b 9f 3c
       0.047733113 -0.058583412 -0.0828659 0.019483535
000200 15 2a 86 bd e8 ed 9a 3a 25 88 3c bd 0b 46 7a 3d
       -0.06550995 0.0011820169 -0.046028275 0.061101954
000210 cb 42 8f bb 50 cf 38 3d 8d 90 80 3d 3e 37 96 bc
       -0.004371976 0.045119584 0.06277571 -0.018336888
000220 ee 82 97 bd 3e 0a cc 3c d1 72 8a bd 35 d0 0d 3d
       -0.0739802 0.024907228 -0.06760181 0.03462239
000230 57 06 a7 3d 6d 3f b3 bd c6 55 68 3d 39 81 ac 3c
       0.08155506 -0.08752332 0.056722425 0.021057712
000240 91 54 15 3d 34 4a 31 bd 00 e6 c3 3c c8 24 7e bd
       0.036457602 -0.043283656 0.023913383 -0.062046796
000250 41 c1 8e 3d 60 41 73 bd 00 f6 29 bd 56 61 a9 bd
       0.06970454 -0.05938852 -0.04149437 -0.082705185
000260 72 da 36 3d a5 7b a9 bc fb 82 6f 3b ac 76 bb bc
       0.04464192 -0.020688841 0.0036546576 -0.022883736
000270 6f cb 20 bd 44 11 24 3b d4 c1 49 3d 10 c0 9c 3c
       -0.03925651 0.0025034705 0.049257115 0.019134551
000280 f8 b8 0d bd 88 98 fd 3c 45 68 6a 3b bf 24 78 bd
       -0.034600228 0.030956522 0.0035767716 -0.06058192
000290 c7 cb 39 bc 62 af a4 bc 38 91 6e bd 67 c5 9d 3d
       -0.011340088 -0.02010316 -0.05824396 0.07703667
0002a0 57 92 07 3c 24 45 a8 3b 47 53 d4 bc 59 44 dd bc
       0.008274636 0.0051351953 -0.025918616 -0.02701013
0002b0 b3 7b 69 3c a0 aa d5 bc f9 b9 84 3d 8a ce 7c bd
       0.014250684 -0.026082337 0.06480784 -0.06172041
0002c0 ff 32 a3 3b cc 66 21 bd 39 97 3b 3c 1d db ac bc
       0.0049804444 -0.039404675 0.0114496285 -0.021100575
0002d0 24 05 86 3d 81 cd 3c bb 7e b3 1b 3c 1d 61 41 3d
       0.06543949 -0.0028809013 0.0095032435 0.047211755
0002e0 11 12 4d bb 56 8e 25 3d c6 0f 8e 3d 67 0f 0d 3d
       -0.0031291286 0.040418945 0.06936602 0.034438517
0002f0 c8 d9 26 bd 6a d2 3a 3d a1 d8 8a 3c 4c 2b 93 bc
       -0.040735036 0.045610823 0.016949 -0.017964981
000300 7d 14 9c bd 65 5b a0 bd 68 a8 5d bd 49 15 42 bd
       -0.07621095 -0.07829932 -0.054115683 -0.04738358
000310 b0 c6 16 bd 03 2f 18 bd 5e 22 96 bd 86 42 66 3d
       -0.036810577 -0.03715421 -0.07330774 0.056215785
000320 b2 d2 a3 3d a3 48 a8 bd e0 ff 4c bd 04 1f 3d 3b
       0.07999171 -0.08216979 -0.05004871 0.0028857598
000330 b9 4f 2c 3d 61 96 0a bb b8 f1 58 3d 8f 1c ab bd
       0.042068217 -0.0021146762 0.052964896 -0.083550565
000340 0c 81 3f 3d da 6d 73 3d f4 e8 5d bd 41 5a a8 3c
       0.046753928 0.059430934 -0.05417724 0.020550849
000350 d5 2e dd bb 5c a0 16 bd ef ea 00 3d bf a2 43 bd
       -0.0067499676 -0.036774024 0.03147405 -0.04776263
000360 0a 38 a5 bd a3 d8 a7 3c 67 97 38 bd 16 59 69 bd
       -0.08067329 0.020489043 -0.045066264 -0.056969725
000370 64 85 99 bd ac 74 93 bd ee 7a 0a bd 67 9f 13 bc
       -0.07496145 -0.07199988 -0.03380864 -0.009010172
000380 0b 9d 18 3d cc 52 1a bd 36 10 ee 3c 51 3d f5 3c
       0.037259143 -0.037676618 0.029060464 0.029936465
000390 18 1f bb bc e3 c6 8c bc 8b f8 85 3d 82 92 04 bc
       -0.022841975 -0.01718468 0.065415464 -0.008091571
0003a0 f6 19 16 3d 12 cf 09 bd ad 0f 55 bd 35 5e 84 3d
       0.036645852 -0.033644743 -0.052016903 0.06463281
0003b0 16 5e 69 bd 27 ca a9 3d 32 c2 79 bd 54 49 61 3c
       -0.056974493 0.082905106 -0.060976215 0.013750393
0003c0 8d f3 dc 3c b2 f3 1a 3d 48 30 56 bd f6 95 a5 bd
       0.026971603 0.037830062 -0.05229214 -0.080852434
0003d0 db 79 95 3d 27 d4 88 3d 7e 48 05 3d 08 88 fe 3c
       0.07298633 0.0668109 0.032539837 0.031070724
0003e0 de 84 37 3d db cb f8 3b aa 8d 85 3c a5 89 e9 bc
       0.044804446 0.007592661 0.016302902 -0.028508017
0003f0 43 0b 3f bd 1e 9b 91 3d b0 c4 59 bd 91 55 96 3a
       -0.0466416 0.071096644 -0.05316609 0.0011469593

conv2.0.bias f4 [32]
000000 c6 c9 3a bd eb 8a 18 bc 60 ab 36 3d 01 de 11 3d
       -0.045602582 -0.009310464 0.04459703 0.03561211
000010 e7 43 36 bc 84 0e 51 3d e6 94 e4 bc 16 0e 19 3d
       -0.011124588 0.051039234 -0.027903032 0.03736695
000020 c0 ae a0 3d 40 4f aa bc 31 c6 d6 bc f3 45 87 3c
       0.07845831 -0.020789742 -0.026217552 0.016512847
000030 28 b2 85 bc eb 81 70 3d b7 41 5e 3c c5 14 04 3d
       -0.016320303 0.05871765 0.013565472 0.03224637
000040 87 26 0f bb 76 65 6b 3d fd 04 40 bd 53 f5 38 3d
       -0.0021843032 0.057469808 -0.046879757 0.045155834
000050 60 41 6d 3d c0 83 a5 3c 34 e8 4e 3d 94 75 11 3d
       0.057923675 0.020204425 0.050514415 0.035512522
000060 f0 58 be 3c ae e3 24 bd 56 36 a4 3c ec 8c 85 bd
       0.023235768 -0.040256195 0.02004544 -0.06521019
000070 5c a0 a0 bd f9 5b 1a bd 32 40 67 bd 6a f1 a2 3d
       -0.07843086 -0.03768537 -0.056457706 0.07956202

conv3.0.weight f4 [64, 32, 5, 5]
000000 5e 8c 0e bd ac 8e a8 bc 77 37 8e bc 3b 88 95 3c
       -0.034801833 -0.020575844 -0.017360432 0.018253436
000010 ac c7 d5 bc c0 b2 a2 3a ac 11 0f bd c9 8a 50 3c
       -0.026096188 0.0012412891 -0.034928963 0.012728401
000020 ba a3 31 3d 20 67 ee 3c b0 40 1a bb 39 42 b0 bc
       0.043369032 0.029101908 -0.0023537092 -0.021515952
000030 50 a2 ea bb 3f ff b0 3c b8 a6 31 bd d4 c7 1d 3c
       -0.0071604624 0.021606086 -0.043371886 0.009630162
000040 b0 67 ee bc a0 10 77 bc f5 ad fa bc 60 2d 8f 3b
       -0.029102176 -0.015079647 -0.030600527 0.004369423
000050 fe e0 6f bc c0 c0 50 bb 01 90 ac bc 3e 6d ad 3c
       -0.014641045 -0.003185317 -0.02106476 0.021170255
000060 cc 1a 3a 3d 74 a0 1c bd 4c 00 7a bc c2 66 b9 3c
       0.04543571 -0.038238958 -0.01525886 0.022632007
000070 c0 8d 14 bd 97 62 8c 3b 6c 58 da 3a 61 bd 05 bd
       -0.036267996 0.0042842138 0.0016658432 -0.03265131
000080 2f fd b9 bc d7 f9 a9 3c 6b e6 2d bc 0a fa 95 bc
       -0.022703735 0.020749016 -0.010614018 -0.018307704
000090 60 23 23 3d f4 b3 70 3c 30 3a 48 ba 29 3c 07 bc
       0.039828658 0.014691342 -0.0007638065 -0.008254089
0000a0 ec a8 a1 bc f4 b3 b9 bc fe 2c a1 3b d2 1d 33 3c
       -0.019733869 -0.022668816 0.0049186936 0.010932403
0000b0 cd d4 4a 3c 2a 5d a8 3c a1 6f dc 3b 35 42 3b 3c
       0.012379837 0.020552237 0.0067271744 0.011429359
0000c0 fc 85 42 3c 02 76 27 bb 67 12 02 3d 95 1d 86 3c
       0.011872765 -0.0025552516 0.03175583 0.016371528
0000d0 0f 92 b9 bc d4 26 f6 3c e7 21 3a 3a f9 cd 83 39
       -0.022652654 0.030047812 0.0007100389 0.0002513973
0000e0 c3 f8 b4 bb ec 87 8b 3c c5 b7 97 3c 6b 0e 26 3d
       -0.005522819 0.017032586 0.018520245 0.040541094
0000f0 db d5 1c bd ad a4 b4 3c fb 9a 00 bb ba d6 00 3c
       -0.038289886 0.02205118 -0.0019623626 0.007863695
000100 27 1a fc bc 62 9b a2 3b 41 59 d6 3c 28 85 06 3c
       -0.03077419 0.0049623707 0.026165606 0.008210458
000110 b5 71 97 3c 25 6c 82 3c 4a 08 97 bc 28 f6 c0 bb
       0.018486837 0.015920708 -0.01843657 -0.005888719
000120 e9 53 ba 3c 9b ef ec b6 c2 ab ec 3c 70 20 79 3d
       0.02274509 -7.061242e-06 0.028890494 0.06082195
000130 bf 2f 22 bb c3 cc 23 3c f5 94 ff 3c 1e 91 98 bb
       -0.0024747697 0.0099975495 0.031198958 -0.004655971
000140 60 42 6a 3d de d6 24 bd 0e fa cc bc 51 52 78 3c
       0.057192206 -0.040243976 -0.02502158 0.0151563445
000150 70 87 d8 bc f1 29 b7 3d c5 99 4d 3b 12 93 3e 3d
       -0.02643177 0.089435466 0.0031372171 0.046526976
000160 3e c5 a3 bc e6 6c 92 3c 56 92 73 3d a0 9b 02 bd
       -0.019991513 0.017874192 0.05946573 -0.031886697
000170 08 cb 7e bd b9 97 af bc 79 fb ab bc 90 b4 7e bb
       -0.062205344 -0.021434652 -0.020993935 -0.0038864948
000180 c0 d8 2e 3a be 52 65 3d 7c 49 3e bb 8a b8 0b bd
       0.00066698715 0.055987112 -0.00290355 -0.034111537
000190 6c cb 0f 3c ea af bc 3c 9a 64 1e bc f1 25 94 ba
       0.008776527 0.023033101 -0.00966754 -0.0011302811
0001a0 2e 1a 58 bc 74 40 98 bc ec ed fa bc 6d a5 04 3d
       -0.0131898355 -0.018585421 -0.030631028 0.032384325
0001b0 6f 45 ae 3b 4a 6a d7 3c af e5 0f 3d 47 09 0b bd
       0.0053183357 0.0262958 0.035131153 -0.033944394
0001c0 ef 2c 5b 3c 19 66 84 bc 20 8e f0 bc de 80 97 3c
       0.013377412 -0.016161965 -0.029364645 0.018494066
0001d0 5e 61 8e 3c a0 e7 7b 3b 39 5c a7 bc 36 7f d6 3c
       0.017380413 0.003843762 -0.020429717 0.026183706
0001e0 d0 c2 a4 bb 63 93 c5 bc a6 42 21 3d c7 c8 2f bb
       -0.0050281063 -0.024118131 0.0393702 -0.0026822553
0001f0 9f 9c 09 3d 9c 80 f5 bb b9 2f a1 bc bf dc b6 bc
       0.03359663 -0.007492138 -0.019676076 -0.022322057
000200 0c 96 95 39 65 7a c7 bc ce c3 0e bd df a1 2b 3d
       0.00028531288 -0.024350354 -0.034854703 0.04190242
000210 93 5a 06 bd 21 40 b6 3c 39 b4 6e 3c aa c0 ed 3c
       -0.032801222 0.022247376 0.014569336 0.029022533
000220 7c c6 a3 bc 9a f1 b6 bc e8 20 a8 3c 52 87 86 3b
       -0.019992106 -0.022332001 0.020523503 0.004105487
000230 38 58 d5 ba 04 4c c8 3c 92 f0 f0 3b 94 1b 34 3c
       -0.0016276902 0.02445031 0.007352897 0.010992903
000240 d1 78 5b 3c 30 c9 a2 3b cc 2f ab bc 30 24 d5 3c
       0.013395504 0.004967831 -0.020896815 0.026018232
000250 19 1b 0d bd c1 53 0e bd af 34 78 bc 34 c7 5d bc
       -0.03444967 -0.034747843 -0.0151492795 -0.013536263
000260 73 59 8d bc ef 49 bc 3b 52 98 c5 bc fc 8e 14 3c
       -0.017254567 0.0057461183 -0.024120484 0.009067293
000270 27 12 8a 3b 15 55 d5 3c eb f7 bf bc 78 4d 6f 3c
       0.0042135897 0.026041547 -0.023433646 0.014605872
000280 68 fe 36 3c 99 2b cd bc e1 99 f7 bc 33 9b e7 3b
       0.011169054 -0.025045203 -0.030224742 0.0070680617
000290 84 0e c0 3c 68 ca 37 bb fd e3 da 3c 4d ac b6 bc
       0.023444422 -0.0028044228 0.026720041 -0.022298956
0002a0 b1 b0 0a 3d 2e 3c 9b 3c 78 f4 c2 3c 11 95 74 3c
       0.033859912 0.018949594 0.023798212 0.014928118
0002b0 81 e0 1a 3c 80 58 e3 3c b8 d4 bc 3c 2e 19 82 bc
       0.00945294 0.027752161 0.023050651 -0.015881147
0002c0 23 60 66 bc 55 8f 39 bc e7 10 96 bc f7 55 11 3d
       -0.014061007 -0.011325677 -0.018318607 0.035482373
0002d0 8b e2 25 bc fd 97 d7 3c a3 d4 01 bc 9d fb 07 3d
       -0.010124813 0.02631759 -0.007924232 0.03319894
0002e0 75 da d9 3c 0c 71 58 3b 91 49 0a bc b1 0f 01 3d
       0.026593426 0.0033026366 -0.008440391 0.031509105
0002f0 ec 4a 12 bb 9c 21 c7 3c c5 48 d2 b6 7f 5f 45 bc
       -0.002232249 0.024308018 -6.266959e-06 -0.012046694
000300 fc a6 a4 3c 08 79 88 3c 31 6d 97 bc 47 88 0f bd
       0.020099156 0.016659275 -0.018484684 -0.035042074
000310 f8 3a cd bc ac 87 a9 3c b4 de 4b bd a6 b8 41 3c
       -0.025052533 0.020694576 -0.049772933 0.011823809
000320 2c 1a 94 39 72 39 db 3c a4 b8 b9 bb fc 00 37 39
       0.0002824826 0.02676079 -0.005667763 0.00017452607
000330 db a2 1f bc 01 8f 03 bd e0 3c e6 3c dc 82 d3 3c
       -0.009743418 -0.0321188 0.0281052 0.025819235
000340 4a 4e 8e 3c 4c c7 0a bd b7 9c 0d 3c 71 a5 5a 3c
       0.017371316 -0.03388147 0.008643321 0.013345108
000350 cf f7 d0 3c 8e e6 a1 3b 1e d1 90 3c 27 a4 a3 bc
       0.02550879 0.0049408143 0.01767784 -0.019975735
000360 0f cc 3f 3c 6c 72 f7 3c 61 ae bc 3c cc 28 3e 3d
       0.011706366 0.030205928 0.02303237 0.046425626
000370 34 97 1a bc 78 80 1a 3a cf b6 0b bb 40 61 67 3b
       -0.009435464 0.0005893777 -0.002131868 0.0035305768
000380 ca ca d7 3b fd d0 06 3d 6d a4 64 bd 1d 20 74 bd
       0.0065854536 0.03291415 -0.05582087 -0.059600938
000390 88 9f a5 bc f0 ad 0f 3d 20 0f 8c 3b c6 89 ea bc
       -0.020217672 0.03507799 0.004274264 -0.028630149
0003a0 3d ea a8 bb e7 03 86 bb 7d d0 fc 3c 29 04 fd bc
       -0.0051548765 -0.0040898207 0.030861134 -0.030885773
0003b0 0f 5e 23 bb 98 3a fe bc 12 d3 bb 3b 02 40 78 bb
       -0.002492789 -0.031033799 0.0057319487 -0.0037879949
0003c0 e0 94 93 ba 3c c4 01 3c 59 a0 33 bc 95 6c 9c 3c
       -0.0011259578 0.007920321 -0.010963523 0.019094745
0003d0 e4 9d 13 bd 8a 4f f2 3c 00 1d 20 bb a2 36 4c b8
       -0.036039248 0.029578943 -0.0024431348 -4.868827e-05
0003e0 15 fb 49 3d dd 6c ed 3b ba c4 ee bc d6 1b 6b bc
       0.049311716 0.0072456435 -0.02914654 -0.014349898
0003f0 4f 18 b5 bc 30 57 d7 3c 30 e5 d4 3b 0e cc ea 3c
       -0.022106318 0.026286691 0.006497048 0.028661754

conv3.0.bias f4 [64]
000000 d3 62 c4 3c 18 bc ce bc 57 c6 e5 3c b9 f5 b1 bb
       0.023972904 -0.025236174 0.028048677 -0.0054309038
000010 d6 4c 9f bc d1 65 b7 bb b1 69 a1 3b ef 79 30 3c
       -0.019445818 -0.0055968543 0.0049259295 0.010771259
000020 a9 ec ff bc 51 a4 97 bc 61 17 1e 3c b1 9d cc 3c
       -0.031240778 -0.01851097 0.009649129 0.024977537
000030 83 93 fb 3c 77 15 5f bc 64 ad d1 3c ae 04 00 3c
       0.030709988 -0.013615957 0.025595374 0.007813616
000040 a6 d4 e9 bb c7 16 50 3c 3a 85 7d 3c 70 55 cb 3c
       -0.0071359454 0.012700743 0.015473658 0.024821013
000050 6e 6d c8 3c 78 f8 f6 bc e1 04 fe 3c 0e 9d bb bc
       0.024466243 -0.030147776 0.031008186 -0.022902038
000060 3e d5 6d 3b 27 da d6 b9 8b c2 8b 3c 28 c0 de ba
       0.0036290432 -0.00040979797 0.017060539 -0.0016994523
000070 69 dc 12 bb 3b 76 0d bd 9d 1f d3 bc 84 2f b3 bc
       -0.0022409207 -0.03453658 -0.02577191 -0.021873243
000080 ad af 6f bc 45 7b de bc 8d 4d d8 bc ea 80 5f bc
       -0.014629287 -0.027158389 -0.026404167 -0.013641575
000090 e9 67 bc 3c 96 42 4b bc 2b 1c 7c bc 23 75 cd bc
       0.022998767 -0.012406012 -0.015387575 -0.02508027
0000a0 50 8c 9b 3c 59 4f 21 bd 89 7f 08 bc d1 fe a9 bc
       0.018987805 -0.039382312 -0.008331188 -0.020751389
0000b0 bd 15 0d bd 4f 5f a6 3a 45 64 9e 3b 9f b0 8f 3b
       -0.03444456 0.0012693199 0.0048337304 0.0043850685
0000c0 28 94 ea 3c 53 86 17 bd cc fb 31 3a 1f db ff bc
       0.0286351 -0.036993336 0.0006789535 -0.031232415
0000d0 1f 7f 7a 3c 1b 25 4c bc 69 be 88 3c e2 d9 20 bd
       0.015289097 -0.0124600185 0.016692357 -0.03927029
0000e0 77 58 a8 bc 3f 66 9a 3c 87 4e 84 3b 53 54 c2 3b
       -0.020549996 0.018847583 0.0040376815 0.0059304624
0000f0 fa ff c2 bc 49 a0 46 3b e0 b9 15 bc 52 86 98 3c
       -0.0238037 0.003030794 -0.009138554 0.018618736

out.weight f4 [10, 128]
000000 69 78 72 bd 09 6e 07 3d c6 dd 52 bd 0e 01 b1 bc
       -0.059196863 0.033063922 -0.05148103 -0.021606948
000010 65 c6 f7 bc ce f7 c1 bb e6 5c 07 bd a7 2b 9e bd
       -0.03024597 -0.005919433 -0.03304758 -0.0772317
000020 dd e6 79 3d 80 60 9f 3a 76 81 4d bd 09 ba cf bc
       0.061011184 0.0012159497 -0.05017229 -0.025357263
000030 e1 40 09 3c de e0 01 bb 25 30 49 bd 9a c6 5e bd
       0.008377285 -0.001981787 -0.04911818 -0.05438862
000040 f5 f8 bb 3c 47 b0 8a 3d 03 9d 50 3d 9e 7e 2f 3d
       0.02294586 0.067719035 0.050930988 0.04284536
000050 b3 23 70 3d 50 71 d6 bc 8a d7 52 3d e2 0c 8b bb
       0.058627795 -0.026177078 0.051475085 -0.004243479
000060 24 e0 86 3d 8c 0a f1 3b 05 d2 6f 3d 44 e9 7d 3c
       0.0658572 0.0073559936 0.0585499 0.015497509
000070 6c d9 6e 3c 57 1c d3 bb 71 e7 1a 3d ef 26 d7 3c
       0.014578205 -0.0064425874 0.037818376 0.026263682
000080 58 b4 f3 bc 76 75 6c 3c d6 f6 a0 bd 90 aa e6 bb
       -0.02974908 0.014432302 -0.0785958 -0.0070393756
000090 a1 98 63 bc 10 93 ef 3c 6e bf 80 bd ec e1 98 3c
       -0.01389137 0.02924493 -0.06286512 0.018662415
0000a0 b0 8b 7a 3d 77 89 b2 bd f0 72 94 3d 28 ca 5e bd
       0.061168373 -0.087176256 0.07248485 -0.05439201
0000b0 1c 45 68 3d 94 a0 84 bd ff 2c a0 bd 82 a9 cb bc
       0.056706533 -0.0647594 -0.07821082 -0.024861101
0000c0 fc 92 22 3d 30 40 36 3b f5 a0 41 3d 6b 9f 4a 3d
       0.039690956 0.0027809255 0.04727264 0.04946844
0000d0 38 38 9a bc c6 a1 0c 3d 1a 23 1b 3d 09 a4 91 3d
       -0.018825635 0.034333967 0.037875272 0.07111365
0000e0 07 c5 99 3d 00 c2 9e bb 8b 75 9d 3d 71 44 9d bc
       0.07508283 -0.004844904 0.07688435 -0.019197674
0000f0 77 30 ba bd 6c d3 ce 3c aa bb 13 bc 3e 53 4e bd
       -0.09091275 0.025247298 -0.009016911 -0.050372355
000100 9a 2e d9 bb 75 ec a0 bd c3 ae c1 ba 21 14 fa 3b
       -0.00662787 -0.078576006 -0.0014776814 0.007631794
000110 5e 42 cf bc 98 30 2e bd 4e 74 86 3c 2f 07 13 bd
       -0.025300201 -0.04252681 0.01641288 -0.035895523
000120 75 1f 92 3d 7c 52 02 bb bb 52 60 3d 25 cc 64 bd
       0.07134906 -0.001988559 0.054766398 -0.05585875
000130 72 74 81 bd 2b 9d 96 3d 67 38 9e 3c 8f e2 5f 3d
       -0.06321038 0.07354196 0.019314004 0.054659422
000140 10 21 c5 3b f4 c9 98 3d f5 ab 37 3d a7 d8 a8 bd
       0.0060159042 0.074603945 0.044841725 -0.08244448
000150 74 ec 93 bc 97 b1 b2 3d 3f 8d 86 3d 86 1a 86 3d
       -0.018057086 0.08725279 0.06569909 0.06548028
000160 e5 8c d0 bc c5 f3 24 bd d6 97 92 bd ce b1 be 3c
       -0.025457809 -0.04027154 -0.07157867 0.023278143
000170 04 66 5d 3c ca d5 b4 bd 95 9b fe bc 23 a1 a6 bc
       0.013513092 -0.088298395 -0.031080047 -0.020340508
000180 83 28 84 bd a1 11 97 3d 6f 90 9d bd bb 39 84 3c
       -0.064530395 0.07376409 -0.07693564 0.01614081
000190 4a 9b f5 bb f8 72 5c bd bc 1e 85 bd 8b 3d 91 bd
       -0.0074953185 -0.05382058 -0.06500003 -0.070918165
0001a0 99 c3 80 3d ca 7b 93 bd b6 f6 2f 3d ed e3 8f 3d
       0.06287307 -0.07201345 0.04295989 0.07025895
0001b0 d4 12 0a 3d 39 fe 0a bd b4 57 a4 3d 30 cc 7d bd
       0.033709362 -0.033933852 0.080245405 -0.061962306
0001c0 73 e0 a1 bd 06 d5 ad bd 37 d5 e1 bb 71 76 8c bd
       -0.079041384 -0.084878966 -0.0068918723 -0.068585284
0001d0 69 e5 65 3c 40 1b be bc 98 b8 91 3c 5c 0c 77 bd
       0.014031746 -0.023206353 0.017788216 -0.06031452
0001e0 87 60 b1 3d fc fe f8 bc 73 a7 26 bd 81 3f a5 bd
       0.08660989 -0.030395024 -0.040687036 -0.08068753
0001f0 a3 c1 2a 3d 09 6e 9e 3d 93 66 35 3c 6b a4 17 bd
       0.041688573 0.07735831 0.011071819 -0.037022036
000200 35 4e 29 3d 78 cc e5 bc 65 92 9a 3c cc 19 20 bd
       0.04133435 -0.0280516 0.018868634 -0.0390871
000210 d3 de 0f 3d 8e fc 16 3d de da c5 3c e7 ed aa 3d
       0.03512461 0.03686195 0.024152216 0.083461575
000220 8a 82 85 bd b2 cc 11 bd b3 c3 80 bc 9d 2f a3 bd
       -0.06519039 -0.035595603 -0.015718317 -0.07968066
000230 af d9 ee bc 78 58 95 3d 65 85 45 3d bc 0b ca 3c
       -0.029156534 0.07292265 0.048222918 0.024663799
000240 ec bb 9d bd 7c 93 4c bd a8 b5 25 3d df aa 81 bd
       -0.07701859 -0.04994534 0.040456444 -0.06331419
000250 20 a4 14 bd 56 8a d9 3a 90 27 4f bd 2d 2f 5a 3d
       -0.036289334 0.0016597013 -0.05057484 0.053267647
000260 2c 5e 2a bd 11 db a9 3c b0 b1 a7 bd bd c3 84 3d
       -0.041593716 0.020734342 -0.08188188 0.064826466
000270 79 50 87 bd ab 20 39 bc 3f c3 3b be a7 d3 71 3d
       -0.06607146 -0.011299293 -0.18336199 0.059039738
000280 87 ed 4d bd 1c cd 0a 3d 16 9c 7e bc 14 b6 fd 3c
       -0.05027535 0.033887014 -0.0155401435 0.03097061
000290 b7 9e 44 3d 8c 76 25 bd fb 63 ff ba 5d 07 31 3c
       0.048002925 -0.04039626 -0.0019484753 0.010804978
0002a0 0f 14 60 bd 83 1c 12 bd f3 9d a2 bd 68 f1 66 3d
       -0.05470663 -0.035671722 -0.07940283 0.056382567
0002b0 32 9f f0 3c d8 05 45 3d 3d 4a d8 bd a9 09 80 3d
       0.029372785 0.048101276 -0.10561035 0.062518425
0002c0 c9 13 95 3c 16 9d b2 bb af 29 b0 3a 0c b4 a5 3d
       0.01819791 -0.005450855 0.0013440157 0.08090982
0002d0 c9 b2 83 3d 11 43 92 bd e7 a7 dc 3b 97 77 88 bc
       0.06430585 -0.07141698 0.0067338827 -0.016658587
0002e0 61 83 8c 3c 6c 9b f7 3c b8 20 4a bd 07 24 0e 3d
       0.01715249 0.030225478 -0.04934761 0.034702327
0002f0 04 19 2e 3d 57 fa 2d 3a 04 70 a3 bd f0 fa 45 bc
       0.042504326 0.000663673 -0.0798035 -0.012083754
000300 d5 6c 26 bd ba f3 f4 bc ed 8a 28 bc ef 88 e1 3c
       -0.040631134 -0.029901374 -0.010287029 0.027531115
000310 5b f6 af 3d 74 c8 0b 3d 01 d3 7c bd 76 77 23 3d
       0.085919105 0.034126714 -0.061724667 0.03990885
000320 37 b4 87 bd 18 66 e6 3b 93 47 8e bd 7b d9 d3 3c
       -0.0662617 0.0070312135 -0.069472454 0.025860539
000330 6a a1 6d 3d 01 81 4f bd da ee 8e 3b ce a7 75 3d
       0.058015265 -0.050660137 0.0043619694 0.059974484
000340 2e 86 39 3d 67 fa 62 3d 37 90 7e bd ba ca 03 bd
       0.04529398 0.055414584 -0.062149253 -0.032175757
000350 eb ef 32 3d 00 c8 88 bb bd e5 a6 3d 24 e4 d5 3c
       0.043685835 -0.0041742325 0.08149288 0.026109762
000360 fe 99 16 bc 71 5c 20 bd 06 51 2e 3d 7f b6 c9 bd
       -0.009191988 -0.03915066 0.04255774 -0.098492615
000370 24 5b 9e bd cc b9 0a 3d 13 a7 38 bc 2b 71 2b bd
       -0.077322274 0.033868596 -0.011270302 -0.041855972
000380 8b 05 96 3b 50 02 66 bd 1a f2 e6 bc 3c 91 ed bc
       0.0045782975 -0.05615455 -0.028191615 -0.028999917
000390 7f 16 d8 bb bb 26 a0 3d db 35 c1 bc 7d 86 a5 3d
       -0.0065944786 0.07819887 -0.02358525 0.08082292
0003a0 d4 ac a9 3d 54 62 a4 bb 3e a0 49 bd d1 76 c4 bb
       0.082849175 -0.0050166044 -0.049225084 -0.0059956093
0003b0 7a 91 a7 bc df d6 d1 3b f0 e7 02 3d c0 99 f6 bb
       -0.02045511 0.0064037885 0.031959474 -0.0075256526
0003c0 e6 96 12 bd 49 0a 14 bc 64 7f ee 3c 77 d3 1b 3c
       -0.03578844 -0.009035655 0.029113479 0.009510866
0003d0 10 63 45 3d 81 69 1f be 52 2a 21 3c 05 46 c9 3d
       0.048190176 -0.1556759 0.00983675 0.09827808
0003e0 d2 d0 1e 3b aa 95 9f bd fd 32 4d bd f2 5b c1 3b
       0.0024233353 -0.07792218 -0.050097454 0.0059008533
0003f0 20 93 80 bd 8d 66 a7 3d 15 74 59 bd ca 31 20 bc
       -0.06278062 0.08173857 -0.05308922 -0.009777496

out.bias f4 [10]
000000 3f ef 94 bb e7 61 81 3d 19 88 90 bd f6 32 fb 3c
       -0.004545122 0.063175015 -0.070572086 0.030663949
000010 a9 71 18 bd b0 c7 53 3d f3 31 97 3d 3e b4 36 3d
       -0.03721777 0.05170411 0.07382574 0.044605486
000020 e1 e9 11 3d e9 a5 b9 3d
       0.035623435 0.09064848
